main_models/model.pt (torch, 130957 bytes, 8 tensors)

weight f4 [64, 99, 3]
-0.053465948 0.0070958845 -0.043373484 0.0025076885 -0.0007363894 0.004252922 0.049044676 -0.032031346
-0.035773966 0.0409388 -0.0368112 -0.0029076969 0.003211198 -0.018944712 0.031530842 -0.047744885
-0.03332391 -0.057724506 0.01621721 0.021525191 0.018483315 -0.025239445 -0.04481415 -0.0054479786
-0.079529405 -0.03580843 -0.04138864 -0.0081956005 -0.034293395 -0.021937842 0.036828328 0.008280184
-0.03618613 0.009436997 -0.030182825 -0.01238868 -0.057051506 0.006727268 0.007128117 -0.010088708
-0.025581118 -0.005337978 -0.024772273 0.069455 0.022842892 0.009598791 -0.010224384 0.01740173
-0.089759886 -0.03983038 -0.069255956 -0.0614528 -0.021107992 -0.031789236 0.0613726 0.069982775
0.00564214 0.04912689 0.026434299 -0.03605364 0.0021268749 0.029905945 -0.06593313 -0.028423777
-0.0474278 -0.045281574 0.109986596 0.053402536 0.11245609 0.021688495 -0.054906745 -0.025889028
0.004717645 -0.083233446 -0.046977505 -0.06703691 -0.0137868915 -0.04169193 0.0696694 0.10468408
0.047544528 0.057089135 -0.042857304 0.028209908 0.030661395 -0.0813979 -0.052862305 -0.005095882
-0.037188344 -0.0023276997 0.09255826 -0.014898658 0.08028478 0.044676542 0.051245976 0.0011438461
-0.025890514 -0.06886441 -0.081308365 -0.00022711523 -0.07705098 -0.0060623875 -0.0014971278 0.04371961
0.021902047 -0.016686497 -0.00829461 0.01621102 0.0031825884 -0.058661994 0.0010674692 -0.0035031517
-0.023928752 0.020256009 0.040531673 0.07748094 0.057761844 0.010995765 0.05176211 -0.029468566
0.030248309 -0.055925574 0.014025598 0.018156784 -0.055334333 -0.017483218 -0.010133987 -0.017231125
0.040953584 0.027229192 0.042263966 -0.017143179 -0.02202712 -0.058616687 -0.030728895 0.0031075529
-0.013858753 0.019821024 -0.03384157 0.026610052 0.069793396 -0.018430835 0.029427333 -0.003217547
-0.0023022227 0.028878395 -0.052956555 -0.069343746 0.02248184 -0.009926683 0.038491312 0.08064837
-0.007794973 0.02555837 -0.011580666 -0.045984734 -0.067112096 0.02542234 -0.0024710225 -0.0010500676
-0.02861709 -0.019098379 0.052997373 0.079485536 0.02506059 -0.04242165 0.02475133 0.021990355
-0.013986999 -0.05650365 -0.0032078559 -0.03554967 0.01847342 0.017863302 -0.0017588189 0.055228572
0.012324296 -0.034083545 -0.050344676 -0.012269399 0.021219676 0.009084108 -0.0046377517 -0.06374497
-0.03476679 0.007787679 0.053476226 0.04186856 0.057976548 -0.023817029 0.053192634 0.013643623
-0.03363032 0.046611767 -0.044046436 0.019912554 -0.024521755 0.019925782 0.026312262 -0.011302946
-0.002538647 0.024890512 0.055394255 -0.008127753 0.017785031 -1.8198509e-05 0.032215495 -0.06467289
0.028781096 -0.02164198 0.03042296 0.06458601 0.081533454 0.020748498 0.047598973 0.003152366
-0.0049150963 -0.023825048 0.025149554 -0.055239856 0.024457777 -0.05489568 0.040110722 -0.02367582
0.0693515 0.019900745 -0.006991806 -0.042690895 -0.06349148 0.04926235 0.027119298 0.012776201
-0.0043676626 -0.05417523 0.030422622 0.037410967 0.004138749 0.036613196 0.009996046 -0.03725579
0.022653425 -0.048678957 0.036747668 -0.03378925 0.008769295 0.014689019 0.008041108 -0.003715737
0.027738502 0.0011821467 -0.004192094 -0.0056638927 0.044175956 0.052977007 -0.04538068 -0.042414933
00000000: 1cff 5abd 9884 e83b 65a8 31bd 0858 243b
00000010: 420a 41ba 185c 8b3b 12e3 483d 4d33 03bd
00000020: b987 12bd 71af 273d 57c7 16bd 0f8f 3ebb
00000030: f672 523b f131 9bbc 7c26 013d 2490 43bd
00000040: a77e 08bd 8870 6cbd f4d9 843c 9955 b03c
00000050: 526a 973c f4c2 cebc 0b8f 37bd f584 b2bb
00000060: 50e0 a2bd dcab 12bd 2287 29bd d746 06bc
00000070: 3b77 0cbd fdb6 b3bc 4dd9 163d 9ca9 073c
00000080: e837 14bd a29d 1a3c f941 f7bc e4f9 4abc
00000090: d7ae 69bd 6a70 dc3b fb92 e93b 1c4b 25bc
000000a0: 7e8f d1bc 34ea aebb 39ef cabc 6c3e 8e3d
000000b0: 0421 bb3c 3f44 1d3c 2d84 27bc 138e 8e3c
000000c0: 08d4 b7bd 2e25 23bd 11d6 8dbd eeb5 7bbd
000000d0: abea acbc 6e35 02bd d661 7b3d 2153 8f3d
000000e0: b3e1 b83b 4739 493d be8c d83c fbac 13bd
000000f0: 0a63 0b3b 50fd f43c f307 87bd fbd8 e8bc
00000100: a743 42bd 2c79 39bd a740 e13d 9ebc 5a3d
00000110: 614f e63d 12ac b13c e5e5 60bd 3a15 d4bc
00000120: 7996 9a3b 4c76 aabd 7c6b 40bd a64a 89bd
00000130: 6ae2 61bc 28c5 2abd d5ae 8e3d 9b64 d63d
00000140: 0dbe 423d 4cd6 693d 248b 2fbd 7718 e73c
00000150: 9b2d fb3c f1b3 a6bd 2586 58bd 5bfb a6bb
00000160: ce52 18bd 528c 18bb 2f8f bd3d 8019 74bc
00000170: 596c a43d c0fe 363d 4de7 513d 1bed 953a
00000180: 5818 d4bc c908 8dbd 0085 a6bd c825 6eb9
00000190: e7cc 9dbd fea6 c6bb 463b c4ba 5513 333d
000001a0: ec6b b33c 1fb2 88bc 1ee6 07bc f9cc 843c
000001b0: f992 503b 8f47 70bd 53ea 8b3a 2295 65bb
000001c0: 3b06 c4bc eeef a53c 8a04 263d 54ae 9e3d
000001d0: af97 6c3d 9527 343c 8204 543d 1068 f1bc
000001e0: 4dcb f73c 3712 65bd 9fcb 653c 89bd 943c
000001f0: 41a6 62bd f738 8fbc 0609 26bc 4a28 8dbc
00000200: f2be 273d c10f df3c fb1c 2d3d da6f 8cbc
00000210: 3872 b4bc 0d18 70bd 2abb fbbc 16a8 4b3b
00000220: d30f 63bc b35f a23c 759d 0abd 53fd d93c
00000230: d7ef 8e3d 43fc 96bc 9711 f13c 7bdd 52bb
00000240: e3e0 16bb 6292 ec3c f9e8 58bd 1804 8ebd
00000250: d62b b83c 87a3 22bc 11a9 1d3d f92a a53d
00000260: f96c ffbb c95f d13c d5bc 3dbc 7d5a 3cbd
00000270: 1172 89bd 8342 d03c e1f0 21bb 6ca2 89ba
00000280: 636e eabc 3474 9cbc c613 593d 50c9 a23d
00000290: de4b cd3c 53c2 2dbd 4dc3 ca3c 1e25 b43c
000002a0: ba29 65bc 5f70 67bd e43a 52bb 889c 11bd
000002b0: 9255 973c 0f56 923c 2b88 e6ba 5b37 623d
000002c0: d8eb 493c 309b 0bbd 3836 4ebd 9705 49bc
000002d0: e3d4 ad3c 83d5 143c 48f8 97bb b98c 82bd
000002e0: 9f67 0ebd c92f ff3b e309 5b3d 5e7e 2b3d
000002f0: d178 6d3d ee1b c3bc 85e0 593d 8189 5f3c
00000300: f2bf 09bd fbeb 3e3d 096a 34bd a71f a33c
00000310: d9e1 c8bc 653b a33c d08c d73c fe2f 39bc
00000320: 6e5f 26bb 30e7 cb3c 16e5 623d 442a 05bc
00000330: eab1 913c 00a9 98b7 65f4 033d 3873 84bd
00000340: 55c6 eb3c 864a b1bc 9239 f93c ac45 843d
00000350: 03fb a63d c1f8 a93c 24f7 423d ed97 4e3b
00000360: d10e a1bb bf2c c3bc 7006 ce3c 3043 62bd
00000370: ad5b c83c 4bda 60bd 244b 243d cbf3 c1bc
00000380: 2908 8e3d e306 a33c 851b e5bb a6dc 2ebd
00000390: d207 82bd 51c7 493d 4a29 de3c 4553 513c
000003a0: 9c1e 8fbb d9e6 5dbd dd38 f93c 3e3c 193d
000003b0: 589e 873b b8f7 153d 75c6 233c 8799 18bd
000003c0: ad93 b93c 9663 47bd b984 163d 9966 0abd
000003d0: 17ad 0f3c 36aa 703c dabe 033c b983 73bb
000003e0: db3b e33c 43f2 9a3a d55d 89bb 2d98 b9bb
000003f0: d9f1 343d 6bfe 583d 18e1 39bd 48bb 2dbd

bias f4 [64]
0.004851737 0.027168209 0.047663316 -0.04953103 0.012923688 0.022609105 -0.026186785 0.00660616
-0.017846256 -0.05714986 -0.04425509 0.055995945 0.029537205 -0.00024804327 -0.02619316 -0.02703378
-0.036748633 0.042353056 -0.024274549 0.03681026 -0.0019736798 -0.024856744 0.03753707 0.0126942
-0.04138313 0.04779669 0.008211135 0.033416197 -0.05609967 0.0077422746 -0.049897324 -0.0022603662
0.030153695 0.045901142 -0.01366855 0.04264507 0.003815227 -0.028234974 -0.019230034 0.03787166
-0.007917966 0.020836411 0.0028560837 -0.03857534 -0.008908155 -0.04350659 -0.035689227 0.018346842
0.022394096 0.050917733 0.04081895 0.047205996 0.0010248176 -0.025128653 -0.0317486 0.024159772
-0.016965235 0.036496386 0.021876413 0.005943587 -0.055785183 -0.0036893752 0.013803498 0.019061342
00000000: 52fb 9e3b dd8f de3c 9c3a 433d 0de1 4abd
00000010: e0bd 533c bb36 b93c ab85 d6bc 7d78 d83b
00000020: 5032 92bc f915 6abd d344 35bd 015c 653d
00000030: 02f8 f13c ce0b 82b9 0a93 d6bc f275 ddbc
00000040: bc85 16bd 667a 2d3d 6bdb c6bc 5bc6 163d
00000050: da58 01bb 5fa0 cbbc 79c0 193d 55fb 4f3c
00000060: 5b81 29bd 76c6 433d ff87 063c 6cdf 083d
00000070: c4c8 65bd e8b2 fd3b 2361 4cbd a722 14bb
00000080: e204 f73c d602 3c3d 0ef2 5fbc 99ac 2e3d
00000090: e308 7a3b 084d e7bc 4e88 9dbc 501f 1b3d
000000a0: 5bba 01bc 1fb1 aa3c 222d 3b3b 2d01 1ebd
000000b0: 83f3 11bc f733 32bd de2e 12bd 1e4c 963c
000000c0: d373 b73c 1d8f 503d c531 273d 135b 413d
000000d0: 2c53 863a 9bda cdbc d20a 02bd b7ea c53c
000000e0: adfa 8abc 3c7d 153d 2a36 b33c 6cc2 c23b
000000f0: 017f 64bd 72c9 71bb 1128 623c 8826 9c3c

weight_ih_l0 f4 [128, 64]
-0.13257381 0.022334943 -0.026764452 -0.14219107 0.081646234 -0.17568634 0.015455659 -0.13221401
0.18152864 -0.104164355 -0.019171257 0.13065812 0.15505512 0.11947578 -0.040383674 0.16586195
0.0354919 -0.06640068 -0.06129146 0.08034925 -0.09735659 -0.14613318 0.08134921 0.087982945
0.14287193 -0.0132678 0.0018007783 -0.16408007 0.07508561 0.00052015384 0.112009555 -0.10468823
-0.028196605 -0.063963585 0.13153407 -0.036685936 -0.030990398 0.15024398 0.14538522 -0.11207531
-0.09587231 0.18372746 0.11687446 0.075782895 -0.12138465 -0.09092104 0.06564473 -0.13123645
-0.05969278 -0.12595919 -0.042009406 0.14380324 -0.1381218 0.047121875 -0.049255755 -0.025377145
-0.11533547 -0.14042237 -0.1729253 0.03535325 0.050219003 -0.15790464 -0.1254778 0.04422941
-0.0612926 0.13957818 -0.103284344 -0.0061535505 0.01693922 -0.10275372 -0.11691775 0.0033040121
0.0006751888 0.17008734 0.043319162 0.05142911 0.14950672 0.02828555 -0.019833488 -0.08742284
-0.2532792 0.1271056 -0.012681128 -0.3031544 -0.06348247 0.021159567 -0.15245187 0.13398522
-0.07317037 -0.0014621249 0.0005218387 -0.069580875 0.037586063 -0.07060532 -0.01327495 0.18909034
-0.12931368 0.104951575 -0.11897884 0.01319401 -0.10488127 -0.09979639 0.056757085 -0.15723181
0.0058374405 0.17742528 -0.085656255 0.08751338 0.10552505 0.24126528 0.048918914 -0.1555527
-0.10080049 0.009146116 -0.029450187 0.11585604 -0.08140766 0.06026011 0.11224777 0.06997838
-0.142149 -0.06459369 0.11402056 0.08462804 -0.15786633 0.17059605 0.10512079 0.17308035
-0.09204494 -0.023193453 -0.13813066 -0.14190811 -0.1397745 -0.11420749 0.028223328 -0.15367824
-0.12561016 -0.10280728 0.13903028 0.12350053 -0.142379 -0.025442187 0.1856489 0.053685125
0.048172764 0.15366668 -0.15841594 0.08151824 -0.07609584 -0.09881785 0.009187286 0.05200811
-0.04721844 -0.13697848 -0.072272636 0.1780148 -0.1609471 -0.16277826 0.08486254 0.10308637
0.12983915 -0.074845545 -0.010434803 0.07040805 -0.075820826 0.14467008 0.13667281 0.124757394
-0.07934763 0.19132009 -0.03655193 0.14790484 -0.076355964 -0.04366314 0.06099922 0.12153276
-0.11553517 0.0745962 0.17636387 0.12624785 -0.1349045 -0.08169476 0.1745803 0.10993191
0.16638517 0.008908672 -0.15080471 -0.13705845 0.020529266 -0.09078506 -0.0029031227 -0.10228081
0.1714175 -0.13941558 0.22985469 0.08753462 0.114018716 -0.120432146 0.06526083 -0.161252
0.1425075 -0.0740494 0.046618436 -0.15008362 -0.035346325 -0.08928102 -0.01916175 -0.1118655
0.09606658 -0.019439222 0.12698197 0.019840144 -0.1675794 -0.1036604 -0.12876101 0.031506874
0.037035014 0.095138036 -0.17394161 0.095587306 -0.096085995 -0.010516416 -0.11325526 -0.063707605
0.042279646 0.084179446 0.03950741 -0.062485818 0.15422088 -0.0048238677 0.03596327 0.27222586
0.06362786 0.06716024 -0.0950521 -0.021802142 -0.14914693 -0.14978263 -0.06312704 0.003551443
0.03515557 0.12768087 0.048420247 0.08756499 -0.042583823 0.025509497 0.058462728 -0.05787188
0.122408554 -0.05297598 0.16035257 -0.1516118 -0.012969217 -0.11898989 -0.15991269 -0.115110695
00000000: 6ec1 07be c5f7 b63c 2041 dbbc 899a 11be
00000010: 2436 a73d 1fe7 33be bb39 7d3c 1c63 07be
00000020: a5e2 393e 1f54 d5bd 0a0d 9dbc 3ecb 053e
00000030: c5c6 1e3e b8af f43d 5a69 25bd b7d7 293e
00000040: f45f 113d 14fd 87bd c10c 7bbd 268e a43d
00000050: e462 c7bd f0a3 15be 6a9a a63d 6730 b43d
00000060: 054d 123e 3061 59bc 1808 ec3a 9b04 28be
00000070: 7cc6 993d ef5a 083a 4465 e53d c866 d6bd
00000080: 91fc e6bc 57ff 82bd deb0 063e fe43 16bd
00000090: 93df fdbc 8fd9 193e dddf 143e bd87 e5bd
000000a0: b458 c4bd 0d23 3c3e e05b ef3d 1034 9b3d
000000b0: 8498 f8bd cf34 babd bf70 863d d962 06be
000000c0: 6b80 74bd 72fb 00be 0e12 2cbd 2841 133e
000000d0: cd6f 0dbe de02 413d 67c0 49bd bbe3 cfbc
000000e0: 0135 ecbd e2ca 0fbe 5413 31be 92ce 103d
000000f0: 71b2 4d3d c1b1 21be 417d 00be e629 353d
00000100: f30d 7bbd 95ed 0e3e be86 d3bd b9a3 c9bb
00000110: 1ec4 8a3c 8b70 d2bd 9372 efbd 2088 583b
00000120: 27ff 303a 602b 2e3e 6f6f 313d 55a7 523d
00000130: 4a18 193e 19b7 e73c d779 a2bc bf0a b3bd
00000140: d0ad 81be f827 023e 82c4 4fbc 0e37 9bbe
00000150: 1903 82bd d456 ad3c 581c 1cbe 6c33 093e
00000160: 59da 95bd c5a4 bfba 01cc 083a 6b80 8ebd
00000170: d8f3 193d 8699 90bd 2d7f 59bc e6a0 413e
00000180: ce6a 04be daf0 d63d 2eab f3bd b02b 583c
00000190: fecb d6bd 0d62 ccbd 1e7a 683d 6001 21be
000001a0: 0048 bf3b f9ae 353e 8c6c afbd 373a b33d
000001b0: 841d d83d 3f0e 773e 335f 483d 3549 1fbe
000001c0: 7d70 cebd 97d9 153c 8541 f1bc ee45 ed3d
000001d0: 0fb9 a6bd 4ed3 763d 29e2 e53d d350 8f3d
000001e0: 828f 11be b249 84bd 9d83 e93d 7751 ad3d
000001f0: b6a7 21be bbb0 2e3e 9249 d73d fa3b 313e
00000200: 0f82 bcbd 3200 bebc 2072 0dbe 5c50 11be
00000210: 0c21 0fbe 9ee5 e9bd 9c34 e73c d45d 1dbe
00000220: f39f 00be a08c d2bd f45d 0e3e d9ed fc3d
00000230: cdcb 11be 226c d0bc bf1a 3e3e efe4 5b3d
00000240: ce50 453d cc5a 1d3e ca37 22be 09f3 a63d
00000250: 23d8 9bbd 0361 cabd 4586 163c 7506 553d
00000260: 1f68 41bd 1644 0cbe ad03 94bd 8349 363e
00000270: 51cf 24be 58af 26be 69cc ad3d f21e d33d
00000280: 8ef4 043e 9f48 99bd bcf6 2abc 1932 903d
00000290: f347 9bbd 6524 143e f5f3 0b3e ce80 ff3d
000002a0: 0381 a2bd 6ae9 433e 7ab7 15bd 5e74 173e
000002b0: 8460 9cbd 1fd8 32bd 51da 793d 2be6 f83d
000002c0: b49d ecbd e4c5 983d bb98 343e 1e47 013e
000002d0: 6824 0abe 954f a7bd 2ec5 323e fb23 e13d
000002e0: e060 2a3e aef5 113c 8d6c 1abe 0d59 0cbe
000002f0: fe2c a83c 84ed b9bd 5142 3ebb 9a78 d1bd
00000300: 1288 2f3e f5c2 0ebe 075f 6b3e 5a45 b33d
00000310: a582 e93d 21a5 f6bd 78a7 853d 3f1f 25be
00000320: 7ced 113e 36a7 97bd f9f2 3e3d 85af 19be
00000330: 4fc7 10bd f8d8 b6bd 1af9 9cbc bd19 e5bd
00000340: 8ebe c43d 013f 9fbc 9007 023e cc87 a23c
00000350: ef99 2bbe e74b d4bd edd9 03be 5a0d 013d
00000360: 07b2 173d bbd7 c23d c01d 32be 47c3 c33d
00000370: bcc8 c4bd 0c4d 2cbc 60f2 e7bd 2279 82bd
00000380: 6c2d 2d3d 4666 ac3d 86d2 213d 21f1 7fbd
00000390: 14ec 1d3e 8911 9ebb 394e 133d 3061 8b3e
000003a0: 534f 823d 4f8b 893d adaa c2bd 689a b2bc
000003b0: f9b9 18be 9e60 19be c048 81bd 54bf 683b
000003c0: 49ff 0f3d c6be 023e 4f54 463d 4655 b33d
000003d0: 606c 2ebd 4bf9 d03c 9d76 6f3d 100b 6dbd
000003e0: 56b1 fa3d 57fd 58bd 7733 243e 2040 1bbe
000003f0: d77c 54bc f9b0 f3bd 27c0 23be 28bf ebbd

weight_hh_l0 f4 [128, 32]
-0.07134716 0.18372095 -0.030924007 -0.15070723 0.0053828578 -0.13481271 0.055031795 -0.08295388
0.15066785 -0.035917137 -0.06441342 -0.10077867 -0.13750094 0.014491567 -0.04767619 0.07790504
0.098610006 0.10994391 -0.02905833 -0.07279889 0.12406441 -0.02262854 0.12601388 0.14740668
-0.23550604 -0.13233037 0.121103 -0.13426885 0.057384703 -0.14958014 0.059838526 -0.09416074
-0.20544511 0.22082251 0.06306504 -0.032402717 -0.02112227 0.09278378 -0.183698 0.09056451
0.027363501 -0.06623994 -0.08239228 -0.11273151 -0.045043185 0.17102201 -0.17886925 0.2946986
0.10656004 -0.0152713 0.18445368 0.23361877 -0.12789813 -0.20324439 0.23548284 -0.028086198
0.17650376 0.12047346 0.019182997 0.1136268 0.06740488 -0.07519978 -0.22011463 0.097824335
0.09623437 0.20597558 0.13818696 -0.039793205 0.12014059 -0.11882198 0.07463141 0.14714228
-0.10710189 0.030312477 -0.14115177 -0.08042103 -0.026923327 -0.130667 0.086533934 -0.18097128
0.20460954 -0.018711124 -0.14918752 -0.07323835 -0.069131896 0.061421696 0.0025018593 -0.1255635
0.10743026 -0.04969729 -0.055274457 -0.1282937 0.072489366 -0.15056428 -0.05775035 -0.0003281221
0.10553754 0.04868945 0.17643277 0.018719634 -0.11000601 -0.36992335 0.0012081207 -0.4221
-0.17174204 0.33187208 0.049944133 -0.083725184 0.14331962 0.16727592 0.21059488 -0.16790718
-0.04436832 -0.11622124 0.0084025245 -0.34638324 -0.015532017 -0.011222488 -0.15572433 0.102556884
-0.04571901 0.15928443 -0.09653176 0.06321142 -0.19037336 0.24555671 -0.097075194 0.12008802
0.045010746 -0.08187087 -0.033663135 -0.17506778 -0.26360717 0.017104859 -0.10931487 -0.41301614
-0.11975121 0.2091859 0.06912172 -0.091824114 -0.23713611 0.016425695 0.29931462 -0.112419225
-0.18137364 -0.27867585 0.18091913 -0.04324458 0.10655111 -0.035708845 0.043592725 -0.18322533
-0.119082704 0.013394743 0.07075344 0.1844727 0.046573877 -0.026570937 -0.04430661 0.08668046
0.030772686 0.13696256 0.013941508 -0.122010455 0.07266907 -0.172905 -0.1542271 -0.29919162
-0.17442787 0.024341753 0.31116322 -0.10674604 0.050958835 0.07122205 0.07406705 0.050632343
0.08863045 -0.06608541 0.015545586 -0.019820467 -0.08136085 -0.06258734 0.054636292 -0.00075656245
-0.2548789 -0.1447942 -0.14142305 0.0838051 -0.13457352 -0.11833258 -0.08680237 0.10699444
0.0119645335 -0.018094517 -0.038405623 0.13796273 -0.17449738 -0.1582552 -0.068829045 -0.085844986
-0.07976496 0.08716618 -0.069572695 0.065991834 -0.1380643 0.09965728 -0.21249722 0.0072981548
-0.16916247 -0.078542404 -0.11534018 0.02687807 -0.068363376 0.01595604 -0.12557702 -0.110836715
0.019762443 -0.16258927 -0.15045944 0.06469398 0.0074996413 0.034072313 -0.07111951 -0.037045732
0.0928915 -0.0075890166 0.13860002 0.026133448 -0.2008859 -0.03408647 -0.051506367 0.04116972
-0.19541661 0.0985002 0.16162732 -0.2345222 0.058957417 0.21059512 -0.18058838 0.33497077
-0.09170883 9.640806e-05 0.10981645 0.18570177 -0.05331069 0.22561854 -0.15006077 -0.11251386
0.17196141 0.0075658653 0.06827064 0.10161852 -0.22497648 0.017168006 0.0054599326 0.19714893
00000000: 761e 92bd 5821 3c3e 5854 fdbc ff52 1abe
00000010: af62 b03b 580c 0abe 0569 613d b9e3 a9bd
00000020: ac48 1a3e d91d 13bd 2feb 83bd 0c65 cebd
00000030: 0ccd 0cbe 0a6e 6d3c 1c48 43bd ad8c 9f3d
00000040: 0bf4 c93d 462a e13d bc0b eebc 9617 95bd
00000050: 7b15 fe3d 7d5f b9bc c809 013e c7f1 163e
00000060: 7f28 71be 9d81 07be da04 f83d c67d 09be
00000070: 390c 6b3d 892b 19be 3e19 753d 59d7 c0bd
00000080: 3460 52be 4c1f 623e 3e28 813d b6b8 04bd
00000090: 9c08 adbc 6c05 be3d 541b 3cbe e379 b93d
000000a0: 6c29 e03c cea8 87bd 49bd a8bd c7df e6bd
000000b0: 347f 38bd 6520 2f3e 8029 37be bce2 963e
000000c0: 263c da3d 7a34 7abc 6de1 3c3e c239 6f3e
000000d0: baf7 02be 4c1f 50be 6a22 713e 0715 e6bc
000000e0: 67bd 343e caba f63d a925 9d3c 2bb5 e83d
000000f0: 920b 8a3d 5802 9abd bb65 61be 2058 c83d
00000100: 8616 c53d 43eb 523e e280 0d3e 33fe 22bd
00000110: 450c f63d f058 f3bd 5ad8 983d 77ac 163e
00000120: 3c58 dbbd df51 f83c 178a 10be c8b3 a4bd
00000130: 4f8e dcbc 92cd 05be b438 b13d 8950 39be
00000140: 2a85 513e 1248 99bc 9dc4 18be fdfd 95bd
00000150: 0695 8dbd 5195 7b3d 3cf6 233b b893 00be
00000160: 6504 dc3d 638f 4bbd 7867 62bd 6c5f 03be
00000170: 4e75 943d 862d 1abe a28b 6cbd ce07 acb9
00000180: 1124 d83d 976e 473d cbaa 343e eb59 993c
00000190: d54a e1bd 9866 bdbe ce59 9e3a 7e1d d8be
000001a0: 25dd 2fbe 23eb a93e 3892 4c3d 1c78 abbd
000001b0: 61c2 123e 614a 2b3e 2fa6 573e dcef 2bbe
000001c0: 8ebb 35bd 6705 eebd beaa 093c 2559 b1be
000001d0: 007a 7ebc 87de 37bc 3376 1fbe 5809 d23d
000001e0: db43 3bbd 751b 233e 72b2 c5bd fd74 813d
000001f0: 3cf1 42be 3873 7b3e 5ccf c6bd b5f0 f53d
00000200: 305d 383d eaab a7bd 5be2 09bd f844 33be
00000210: 85f7 86be 7d1f 8c3c 79e0 dfbd da76 d3be
00000220: 1f40 f5bd d434 563e b08f 8d3d 480e bcbd
00000230: cfd3 72be 2e8f 863c c43f 993e 0d3c e6bd
00000240: 03ba 39be 9aae 8ebe dd42 393e 3b21 31bd
00000250: 7837 da3d 7043 12bd 498e 323d 6c9f 3bbe
00000260: a2e1 f3bd a075 5b3c 2ee7 903d 69e6 3c3e
00000270: 40c4 3e3d 4bab d9bc d97a 35bd 8685 b13d
00000280: 0017 fc3c ea3f 0c3e ec6a 643c 9ee0 f9bd
00000290: 85d3 943d 020e 31be b5ed 1dbe a52f 99be
000002a0: 389d 32be 5b68 c73c c950 9f3e ab9d dabd
000002b0: 36ba 503d dedc 913d 77b0 973d dc63 4f3d
000002c0: e283 b53d ca57 87bd eab2 7e3c 885e a2bc
000002d0: 84a0 a6bd cb2d 80bd 4eca 5f3d 0c54 46ba
000002e0: 7d7f 82be ee44 14be 34d1 10be 02a2 ab3d
000002f0: a4cd 09be 5a58 f2bd 71c5 b1bd e71f db3d
00000300: e406 443c f43a 94bc 374f 1dbd 1a46 0d3e
00000310: 71af 32be a70d 22be 3ef6 8cbd 7fcf afbd
00000320: d05b a3bd 2f84 b23d 217c 8ebd ba26 873d
00000330: ba60 0dbe 1e19 cc3d df98 59be 5c25 ef3b
00000340: ed38 2dbe d7da a0bd 7937 ecbd 662f dc3c
00000350: 1902 8cbd 3eb6 823c 4397 00be 5cfe e2bd
00000360: d9e4 a13c cd7d 26be 0a12 1abe 477e 843d
00000370: 8dbf f53b 698f 0b3d 1ba7 91bd 44bd 17bd
00000380: e63d be3d 49ad f8bb 2aed 0d3e d015 d63c
00000390: 09b5 4dbe 419e 0bbd 57f8 52bd 95a1 283d
000003a0: 4b1b 48be 79ba c93d a281 253e 9626 70be
000003b0: 557d 713d 3fa6 573e 29ec 38be 4a81 ab3e
000003c0: d7d1 bbbd af2e ca38 72e7 e03d 9b28 3e3e
000003d0: 4f5c 5abd 8c08 673e 88a9 19be ab6d e6bd
000003e0: a716 303e 14eb f73b 7ad1 8b3d 5f1d d03d
000003f0: 3c60 66be eba3 8c3c 3ce9 b23b 69e1 493e

bias_ih_l0 f4 [128]
-0.056479312 0.17650352 -0.0578787 -0.037558883 -0.15388778 -0.06890775 -0.06782124 -0.00042940813
0.013014447 0.16652115 0.0020592096 0.17395921 0.11287076 -0.05867477 -0.0015280165 0.1561823
-0.16875866 -0.1407878 0.16305217 -0.19782723 -0.038685642 -0.068244524 0.12981384 0.0025801696
-0.09092349 -0.024428917 -0.16179876 0.1918663 -0.0069539943 0.0712848 -0.14332621 -0.036231704
0.089102566 0.14368126 0.042930327 0.13683286 0.15031797 -0.08916308 0.030450933 0.011420881
0.18114859 -0.08182594 0.14831135 0.08147097 0.04563262 -0.035265207 -0.08029409 0.0872253
0.13013 0.08806001 -0.03653613 -0.057203144 -0.09479042 0.16782357 -0.13524206 -0.08157051
0.06181242 -0.111102134 -0.114474855 -0.09051102 0.036474492 -0.009278149 0.00014026176 0.1652644
0.021853322 0.0071092225 0.049763933 0.14858666 -0.03551871 0.03762523 0.029423399 0.120412886
0.14698996 -0.13560939 0.041527364 -0.044231936 -0.15087526 -0.17631173 0.15459718 -0.11964828
-0.12407233 -0.15310496 -0.009119667 0.0102188215 -0.08454655 -0.1087295 0.13016686 0.092329375
-0.014471272 0.0838994 -0.011873634 -0.0676232 0.050226428 -0.057491586 -0.16404654 -0.14357832
0.058979377 -0.03324343 0.08421878 0.117506385 -0.15634795 0.09594509 0.14169915 0.12128834
-0.074709944 0.17821485 0.00022547245 -0.03405081 -0.0050611985 -0.042074256 0.21312486 0.08517381
-0.09862728 -0.124848254 -0.03713647 -0.048014484 0.11780187 0.11677968 -0.03352439 0.030831968
0.08670873 0.112403385 -0.14699255 -0.13429634 -0.10725864 0.15311658 -0.09402665 0.20225732
00000000: da56 67bd 57bd 343e 3712 6dbd 58d7 19bd
00000010: c294 1dbe 821f 8dbd dde5 8abd 2f22 e1b9
00000020: 8c3a 553c 8584 2a3e cef3 063b 5d22 323e
00000030: c928 e73d f554 70bd ba47 c8ba 41ee 1f3e
00000040: 12cf 2cbe ad2a 10be 26f7 263e 3993 4abe
00000050: d674 1ebd c9c3 8bbd ebed 043e 1018 293b
00000060: 1836 babd 271f c8bc 93ae 25be 9978 443e
00000070: 55de e3bb c4fd 913d 1bc4 12be b267 14bd
00000080: 687b b63d 2e21 133e b6d7 2f3d ea1d 0c3e
00000090: f4ec 193e 229b b6bd 3c74 f93c a61e 3b3c
000000a0: 047f 393e 5c94 a7bd eede 173e 40da a63d
000000b0: 45e9 3a3d 4072 10bd 3a71 a4bd 2ea3 b23d
000000c0: cc40 053e ce58 b43d e9a6 15bd d84d 6abd
000000d0: 7b21 c2bd f1d9 2b3e e57c 0abe 710e a7bd
000000e0: 052f 7d3d 8489 e3bd cb71 eabd d75d b9bd
000000f0: 4766 153d 6103 18bc 3b13 1339 123b 293e
00000100: bd05 b33c 7bf4 e83b 44d5 4b3d 1a27 183e
00000110: 117c 11bd ea1c 1a3d 5709 f13c 089b f63d
00000120: 8984 163e 30dd 0abe 9918 2a3d 8c2c 35bd
00000130: 0b7f 1abe 108b 34be b94e 1e3e 280a f5bd
00000140: a219 febd 8cc7 1cbe a86a 15bc d86c 273c
00000150: be26 adbd 92ad debd 764a 053e 2f17 bd3d
00000160: ea18 6dbc 73d3 ab3d a189 42bc 087e 8abd
00000170: 3aba 4d3d 4c7c 6bbd d1fb 27be 3206 13be
00000180: 5c94 713d 432a 08bd e57a ac3d 30a7 f03d
00000190: ad19 20be dc7e c43d 9519 113e 0566 f83d
000001a0: 8701 99bd f47d 363e cd6c 6c39 dd78 0bbd
000001b0: 69d8 a5bb 0e56 2cbd 673d 5a3e 9b6f ae3d
000001c0: 19fd c9bd 71b0 ffbd 691c 18bd d6aa 44bd
000001d0: 1b42 f13d 2f2a ef3d df50 09bd 5393 fc3c
000001e0: 5994 b13d bf33 e63d 3785 16be fb84 09be
000001f0: 6baa dbbd 98ca 1c3e 0b91 c0bd 8b1c 4f3e

bias_hh_l0 f4 [128]
0.1067731 0.040040176 0.09071229 0.04874717 0.052062914 -0.022717278 0.11767614 0.1059756
0.16384321 -0.018291324 -0.14253052 0.19968559 -0.16862433 0.10244186 -0.1423629 -0.0043035503
0.08215567 -0.056191333 0.0648315 0.117442764 -0.025337601 0.18097347 -0.1751492 0.0037031716
0.15477234 -0.10990754 0.090200044 -0.14772652 0.14190549 0.10387414 -0.05216874 0.04975655
-0.042060416 -0.034778498 -0.10858229 0.13401839 -0.0320692 0.022631034 0.048081234 -0.022882827
-0.14857781 -0.068973236 -0.0033052228 0.15634057 0.09083671 0.13949358 0.08409851 -0.047539666
0.027721513 0.08246778 0.048523396 -0.032941993 0.05471695 0.008456155 0.05942017 -0.054129343
0.12941085 0.06532761 0.18860278 0.111805946 -0.07871644 -0.122660875 0.15269531 0.16389085
-0.07563502 0.021930218 0.024271714 0.037245214 0.07642193 -0.15467644 -0.033937618 0.15682307
-0.14070486 -0.08481877 0.120205775 0.032743346 -0.133406 0.054866027 -0.12420524 0.16823152
0.009705375 0.02917905 -0.04176599 0.06201481 -0.056434274 -0.0153414635 -0.0066782734 -0.033087645
0.07813486 0.13371742 -0.00085133757 -0.12942839 0.13109992 -0.047520485 -0.1593418 -0.08985776
0.111970186 -0.015305489 0.062528506 0.1345677 0.031982735 0.11648249 -0.13922873 -0.14419189
-0.018699113 0.08019239 0.01729726 0.116000175 0.1004811 -0.17071867 0.0265426 -0.04236002
-0.04297992 -0.13711293 0.1468324 0.045750555 -0.13642867 0.010001041 0.089317486 0.14813331
-0.07954448 -0.0963588 0.08268338 0.11795482 0.15115507 -0.18527037 -0.06250108 -0.08381177
00000000: dbab da3d 2b01 243d 5dc7 b93d 1dab 473d
00000010: ec3f 553d 9619 babc 3000 f13d bc09 d93d
00000020: 84c6 273e b0d7 95bc 85f3 11be 617a 4c3e
00000030: dbab 2cbe 0acd d13d 94c7 11be cc04 8dbb
00000040: 3b41 a83d e228 66bd 61c6 843d d585 f03d
00000050: cd90 cfbc 1c51 393e 505a 33be e9b0 723b
00000060: a47c 1e3e 3417 e1bd cdba b83d 9f45 17be
00000070: ac4f 113e f7bb d43d e4ae 55bd 86cd 4b3d
00000080: 8b47 2cbd e673 0ebd 6460 debd 1e3c 093e
00000090: fe5a 03bd b864 b93c d4f0 443d c474 bbbc
000000a0: c824 18be d741 8dbd 709c 58bb be17 203e
000000b0: 9908 ba3d 68d7 0e3e d73b ac3d f4b8 42bd
000000c0: 3a18 e33c dee4 a83d 78c0 463d 2fee 06bd
000000d0: e11e 603d af8b 0a3c 9062 733d bbb6 5dbd
000000e0: 4784 043e 7bca 853d 1621 413e 84fa e43d
000000f0: 1636 a1bd a035 fbbd 295c 1c3e 01d3 273e
00000100: 89e6 9abd 00a7 b33c 79d5 c63c 708e 183d
00000110: 1a83 9c3d 8063 1ebe 2c02 0bbd 3a96 203e
00000120: ef14 10be 77b5 adbd 722e f63d e31d 063d
00000130: 959b 08be 33bb 603d 515f febd e244 2c3e
00000140: 4b03 1f3c e708 ef3c d112 2bbd 3e03 7e3d
00000150: a027 67bd c35a 7bbc 6bd5 dabb e986 07bd
00000160: 2b05 a03d 38ed 083e 4c2c 5fba e088 04be
00000170: 0f3f 063e d7a4 42bd 7f2a 23be 5807 b8bd
00000180: a050 e53d e0c3 7abc f20e 803d 1dcc 093e
00000190: 5400 033d 5f8e ee3d fa91 0ebe 0aa7 13be
000001a0: e22e 99bc e83b a43d fcb2 8d3c 8091 ed3d
000001b0: 09c9 cd3d e0d0 2ebe de6f d93c b381 2dbd
000001c0: b60b 30bd 5567 0cbe 3c5b 163e ef64 3b3d
000001d0: f5b3 0bbe 68db 233c 16ec b63d 42b0 173e
000001e0: 37e8 a2bd c357 c5bd e755 a93d 4c92 f13d
000001f0: 65c8 1a3e 84b7 3dbe 9100 80bd 81a5 abbd

weight f4 [4, 32]
0.36268046 -0.5542457 -0.26494703 0.47136277 0.3401771 -0.09304416 0.4148504 -0.21573691
0.30618742 0.5351539 0.3459256 0.25417835 0.4880661 0.08400311 -0.4577496 -0.42401597
-0.41930518 -0.4010384 -0.41117996 -0.25844145 -0.038026117 0.36482257 -0.57431304 0.47197118
-0.5291045 -0.514619 -0.23141809 -0.20588577 -0.2641655 0.39807785 0.23203176 0.7254874
0.29428816 0.30254433 0.47346708 -0.50788116 0.21701059 -0.26035473 -0.47110337 0.38705137
-0.20378782 -0.56283754 0.34400505 -0.36815247 0.5565168 0.25207928 0.42758036 0.510719
0.45548227 0.06284764 -0.44953763 -0.28231505 -0.4403857 0.38811088 -0.53358585 0.4337918
0.66354704 0.333752 0.39406857 -0.36456966 -0.40187418 -0.3633212 -0.45278662 0.56999296
-0.44090185 0.1359313 -0.19994938 0.39830256 -0.086520314 0.64268583 0.33234748 0.4610933
0.26925468 -0.58782756 -0.3803908 0.5161642 -0.268582 -0.4425881 -0.5610889 0.18104576
0.30891153 0.5705393 0.13359988 0.42049977 0.17717329 -0.19203715 0.14013618 -0.20777385
0.32326192 0.08189165 -0.13312928 -0.2218677 0.3002082 -0.3280306 0.025185037 0.22330686
0.17484647 0.035770983 -0.18882717 -0.49410996 -0.3877421 -0.43817762 -0.5021299 -0.40334713
-0.569072 0.36631617 -0.44516313 -0.58516866 -0.24708255 -0.26614678 0.53542244 0.35058925
0.08008154 -0.6498852 0.11402054 -0.41061303 0.3656658 -0.2017347 0.11604113 -0.31399953
-0.4458241 0.1793652 -0.24070472 0.28103155 0.34956756 0.40467444 0.15241162 -0.37780482
00000000: 41b1 b93e 0ce3 0dbf 23a7 87be 7656 f13e
00000010: b12b ae3e f08d bebd 4667 d43e 23ea 5cbe
00000020: 99c4 9c3e d9ff 083f 291d b13e aa23 823e
00000030: cde3 f93e d309 ac3d 285e eabe 9f18 d9be
00000040: 2baf d6be e854 cdbe 2e86 d2be 7052 84be
00000050: 46c1 1bbd 06ca ba3e 2e06 13bf 35a6 f13e
00000060: 6473 07bf 12be 03bf ddf8 6cbe b8d3 52be
00000070: b340 87be dcd0 cb3e bc99 6d3e 8bb9 393f
00000080: f0ac 963e 17e7 9a3e 476a f23e 8004 02bf
00000090: 0638 5e3e 374d 85be 7634 f1be 992b c63e
000000a0: c1ad 50be 1f16 10bf 6e21 b03e 7b7e bcbe
000000b0: e377 0e3f 8910 813e d0eb da3e 7bbe 023f
000000c0: f934 e93e 43b6 803d cc29 e6be 998b 90be
000000d0: 3c7a e1be 78b6 c63e 1599 08bf f519 de3e
000000e0: 38de 293f 8be1 aa3e 5bc3 c93e e0a8 babe
000000f0: 74c2 cdbe 3c05 babe a6d3 e7be 0feb 113f
00000100: e3bd e1be 9331 0b3e 88bf 4cbe 50ee cb3e
00000110: 9031 b1bd 0f87 243f 7329 aa3e 6c14 ec3e
00000120: c0db 893e de7b 16bf 95c2 c2be 5623 043f
00000130: 9483 89be e89a e2be 86a3 0fbf 0f64 393e
00000140: a729 9e3e dd0e 123f 68ce 083e bf4b d73e
00000150: ea6c 353e 63a5 44be dc7f 0f3e abc2 54be
00000160: 9682 a53e cfb6 a73d 0b53 08be 4931 63be
00000170: e4b4 993e a0f3 a7be da50 ce3c 8eaa 643e
00000180: f40a 333e 9884 123d e95b 41be fbfb fcbe
00000190: 2286 c6be d158 e0be 968b 00bf 8483 cebe
000001a0: b4ae 11bf cb8d bb3e 6cec e3be 9dcd 15bf
000001b0: 3503 7dbe 6444 88be 7211 093f 6f80 b33e
000001c0: ca01 a43d e05e 26bf 9a83 e93d df3b d2be
000001d0: 8c38 bb3e 8b93 4ebe f9a6 ed3d 8cc4 a0be
000001e0: 0e43 e4be 83ab 373e 4c7b 76be 5ee3 8f3e
000001f0: 85fa b23e 7d31 cf3e cb11 1c3e a26f c1be

bias f4 [4]
-0.2744224 -0.07105663 0.13611756 0.12838714
00000000: 1881 8cbe 2386 91bd 6762 0b3e eb77 033e
