main_models/model_dict().pt (torch, 129278 bytes, 8 tensors)

conv1d.weight f4 [64, 99, 3]
000000 47 15 d1 bc f1 ac 76 bd eb c2 32 bd 20 c1 00 bc
       -0.025522841 -0.060223524 -0.04364292 -0.007858545
000010 b4 fb 7a bc 47 f9 62 3d fc 84 1c bd 03 1f e2 3c
       -0.0153188 0.05541351 -0.03821276 0.027602678
000020 4b d4 34 bd 9d 90 2b 3d 66 20 c9 3c 06 79 37 3d
       -0.04414777 0.04188596 0.024551582 0.04479315
000030 80 3d e0 bc d7 35 2c bd 2f 07 3a 3c c7 bd 6f 3c
       -0.027373075 -0.042043533 0.011354252 0.014632649
000040 32 62 e1 3c 7c 89 57 bd 77 89 81 3d 8e c0 b4 3d
       0.027512643 -0.05262135 0.063250475 0.088257894
000050 98 64 4d 3d 64 93 46 bd 2d be ad 3c d1 bb 27 3d
       0.05014476 -0.048480406 0.021208847 0.0409506
000060 7b 50 00 bd 6e 25 22 3d aa 2c c6 3c 13 5c bf 3b
       -0.031326752 0.039586477 0.02419122 0.0058398335
000070 c3 7e 12 bd 9b 61 41 bd 56 e0 4b bb e1 e7 d2 bc
       -0.03576542 -0.047212224 -0.0031109056 -0.025745334
000080 ee 7f 94 bc 46 20 ed 3c 1c 7e 1a bd 66 17 9b ba
       -0.018127408 0.028946053 -0.037717924 -0.0011832535
000090 0f 8c 50 bc 21 0b 2d 3d 25 6d 10 3d 5a 01 69 bd
       -0.012728705 0.04224694 0.03526034 -0.056886055
0000a0 84 b5 b0 3c 8d a7 37 bd 92 1f b7 3c dc 86 71 3c
       0.021570928 -0.044837523 0.022353921 0.014741626
0000b0 72 77 68 bc c0 58 11 bc 06 1e c1 3c 79 f4 3b bd
       -0.014188634 -0.008871257 0.023573887 -0.045887444
0000c0 f6 23 a9 bd e0 ef 89 3c 71 d6 40 bd 23 cd 1d bd
       -0.08258812 0.016838014 -0.047079507 -0.03852571
0000d0 45 c1 23 3d e8 5a 2a bd 83 15 35 3d b2 14 7a 3d
       0.039979238 -0.0415906 0.04420997 0.061054893
0000e0 e3 1e ef 3c 4f 07 b0 bc 31 ac b3 ba d4 0f 4c 3d
       0.029189533 -0.02148786 -0.0013707933 0.049819782
0000f0 f6 2a e0 3c d6 06 8e bd f0 61 7a 3c 62 08 ab 3b
       0.027364235 -0.069348976 0.015282139 0.005219505
000100 ad ef b4 bc 80 6d 1c 3d 92 24 8c 3d fa 62 56 3d
       -0.022086943 0.038190365 0.06842913 0.052340485
000110 20 38 be bb cd 37 17 3d 69 79 7f 3c 93 01 49 bd
       -0.0058050305 0.03691845 0.015592911 -0.049073767
000120 db 11 6e 3c 1c 1b a6 bc 33 94 1a 3d b3 80 30 bb
       0.014530624 -0.020276599 0.03773899 -0.002693218
000130 f7 6e 03 bd 9b 01 89 bc 98 70 8d 3c 2c d1 6f 3d
       -0.032088246 -0.016724398 0.017265603 0.05854909
000140 a8 14 f1 3c 36 69 85 3c 82 37 2e bc 14 51 3d 3d
       0.029428795 0.01628552 -0.010633351 0.0462199
000150 e2 5b b8 bd 76 95 25 3d 18 9f 5c bd 4c 08 5f 3c
       -0.090019 0.04042574 -0.05386266 0.013612818
000160 a6 3a 5d bd 18 cb 1c bd 91 12 1f bb a3 39 f7 3b
       -0.05401101 -0.038279623 -0.002427254 0.0075447126
000170 53 61 49 3d 48 16 40 3d a5 3d 0c bd ba 06 fe bc
       0.04916508 0.04689625 -0.034238476 -0.031009067
000180 50 b3 a9 bc da 73 0f bd 18 8e af bb 65 c9 c1 bc
       -0.020715386 -0.035022594 -0.005357515 -0.023655603
000190 30 44 39 3d 3d f0 12 bb 0d 0f 97 bc b0 d3 82 bc
       0.045231044 -0.0022421025 -0.018439794 -0.015970081
0001a0 4a b9 4a bc 4a a8 c0 3c 24 03 2e 3d 50 d6 6a bd
       -0.012373278 0.023517746 0.042483464 -0.05733329
0001b0 5d 58 4b bd 95 ff f1 3c df a1 89 3c 4d 5d 4d bd
       -0.049644817 0.029540816 0.016800819 -0.050137807
0001c0 1c 9a 91 3b 85 a0 25 3d 3b 93 40 3d 57 ba b0 b9
       0.00444342 0.040436286 0.04701541 -0.0003370817
0001d0 6f 01 42 3b bc ae 24 3d 7e 87 16 3d 87 8d d1 bc
       0.0029602905 0.040205702 0.03675031 -0.02558018
0001e0 72 f1 14 bd 93 49 d3 bc 97 ca 25 3d 9c 92 8d bc
       -0.036363073 -0.025791919 0.040476408 -0.017281823
0001f0 23 df f7 ba 85 22 47 bd 53 63 10 3d 43 e6 ac bc
       -0.0018911104 -0.048616905 0.035250973 -0.021105891
000200 a8 42 70 3d d0 04 74 3a ae 6e 0b bd 8e 70 ba 3c
       0.05865732 0.00093085784 -0.0340411 0.022758748
000210 34 2f 9e bd ce a1 b0 bb e8 03 2b bd 82 e7 98 3c
       -0.07723847 -0.0053903824 -0.041751772 0.018665079
000220 d0 41 22 3d d4 f6 eb bc b3 a3 ef bc 7b 9b 99 3d
       0.039613545 -0.02880422 -0.029252863 0.07500359
000230 68 9f 44 3c 6c 2c 14 bc d6 8f e4 3c 51 0e 98 bc
       0.012000896 -0.009043794 0.027900618 -0.018561514
000240 ce 4b 3d 3c 31 93 40 bd 51 fb 3d bd 92 91 f8 3c
       0.011553718 -0.047015373 -0.046382252 0.03034285
000250 16 76 11 3b 92 38 bb 3b 15 6f 17 bc 2f 34 76 3d
       0.002219563 0.005713531 -0.009242793 0.06010836
000260 3c 90 fd bc 09 d8 24 3d 1e b2 96 bc 84 36 05 3d
       -0.030952565 0.04024509 -0.01839548 0.032522693
000270 4b 82 b0 3b 10 1f 25 3d 83 74 04 3c 41 25 56 3d
       0.005386626 0.040312827 0.008084419 0.05228162
000280 97 6d 20 3d 88 b8 53 3b 18 54 8f 3d fe ab 29 3b
       0.039167013 0.0032306034 0.069984615 0.002588987
000290 a0 56 05 3c 9a 9a 6c bd ab 6e 5f 3a 97 55 47 bc
       0.008138329 -0.057764627 0.0008523266 -0.012166402
0002a0 09 f3 3f bd 30 56 e5 bc 18 12 0b 3d 90 f8 28 3d
       -0.046862636 -0.027995199 0.033952802 0.041252673
0002b0 35 40 1d 3d 41 98 68 3d 3b 95 82 3c a3 e2 a6 3c
       0.03839131 0.056785826 0.0159403 0.02037174
0002c0 d8 99 61 3d e7 cd 0b 3b f1 0d 02 bd 75 ee 47 3c
       0.055078357 0.0021332444 -0.031751577 0.012202849
0002d0 d1 2d 9a bd dc 7d 3a 3d d9 3e 60 3d 46 02 30 3c
       -0.0752827 0.045530185 0.054747436 0.0107427295
0002e0 db d8 5f 3c e7 41 ae 3c 2a a9 f1 bc 93 ba 2f bd
       0.013662542 0.021271659 -0.029499609 -0.04290254
0002f0 ab 09 a4 3c 16 ed 13 3d d2 98 d6 bc 06 64 bd bc
       0.020024141 0.036114775 -0.026195917 -0.023118984
000300 d4 c1 7a bc 59 4c 63 bd 33 72 2c bd 04 dd 58 3d
       -0.015305001 -0.055492733 -0.042101096 0.052945152
000310 9d 7d 8c 3b b3 73 9a 3c 6d 93 d9 3c e6 61 71 3d
       0.004287435 0.018853998 0.026559556 0.058931254
000320 14 fa 6f bb a0 65 c9 3c d4 20 3f bd 1c c6 42 bd
       -0.0036617564 0.024584591 -0.046662167 -0.047552213
000330 58 6d 68 3c 94 64 26 3d 7a 60 4e 3d dc 06 45 3b
       0.014186226 0.040623263 0.050384976 0.0030063903
000340 ed 2c 19 3c 48 2f 6e 3c 8b 29 4b 3c 88 e4 1b 3d
       0.00934909 0.01453764 0.012400041 0.03805974
000350 09 fe 3f 3d 5c fc 2b 3c 66 39 34 3c 4d 09 cd bc
       0.046873126 0.010497179 0.011000013 -0.025028849
000360 80 37 e8 3b 3e 52 0e bc 1a 87 10 3d c5 08 40 bd
       0.0070866942 -0.0086866 0.035285093 -0.046883363
000370 b4 75 87 3c 13 f5 19 3d 03 53 68 3d 22 cd 76 3d
       0.016535617 0.037587237 0.05671979 0.060254224
000380 12 88 28 bd 00 0c 10 3c 57 de 33 3d 0e d5 f3 3c
       -0.04114539 0.0087919235 0.04391321 0.029764678
000390 1a 0b be 3c 92 bf 69 bd ad 89 39 3c c9 22 5c bd
       0.023198653 -0.05706746 0.011324328 -0.05374411
0003a0 36 ae 56 bd a8 20 0e bd ab 58 97 3d 02 7a 65 3d
       -0.052412234 -0.034699112 0.07389959 0.05602456
0003b0 5a a2 66 3d 8b b9 4b 3d c8 63 50 3d fc bf 5c bd
       0.056307174 0.049737494 0.05087641 -0.053894028
0003c0 93 fa 48 3c f3 d8 60 bd c1 8a b9 3c f7 2f fd 3c
       0.012266773 -0.0548944 0.02264917 0.03090666
0003d0 da 62 08 bd 5c e3 23 3d cb 0a 2f bc 4e 0c 10 bd
       -0.033297397 0.04001175 -0.010683726 -0.035167985
0003e0 b2 d0 8b 3c 08 8f c1 3c ae 88 0e 3c e9 a1 ef bc
       0.017067287 0.023627773 0.008699579 -0.02925201
0003f0 dd 7d 0f bc 25 d4 83 3d ef 21 1c 3d 7e c5 5d bd
       -0.0087580355 0.06436948 0.0381183 -0.05414342

conv1d.bias f4 [64]
000000 bb db 05 bd cb aa 1e bd e1 9e 19 bd b3 68 7c 3d
       -0.032680254 -0.0387371 -0.037505034 0.061623286
000010 59 d1 3c 3d e6 d1 87 bd 8d c3 c6 3c 85 be 82 3c
       0.046098087 -0.06631832 0.024263168 0.015959987
000020 ae 00 24 bc 37 dd e9 bc 0e b2 16 bd f6 8e 61 3d
       -0.010009928 -0.028547866 -0.0367909 0.05506798
000030 ac 76 72 3d ff 2f 93 bc 7b 9e a5 3b 6e 49 7e bc
       0.059195206 -0.017967222 0.0050542927 -0.015520437
000040 30 e5 98 bc fe f9 ca bb 8c 37 7d bd 73 d6 28 bd
       -0.018663973 -0.006194352 -0.06182055 -0.04122014
000050 6d 20 53 3d 89 35 cc 3c 7c 5c e6 bc 3a d8 2e bd
       0.051544596 0.024927871 -0.028120272 -0.04268668
000060 a2 4b 58 3d c3 25 67 3d b3 e0 61 bc b8 bb 5b bc
       0.052806504 0.056432497 -0.013786483 -0.013411455
000070 4b 08 48 3d f0 c5 91 bc 17 32 58 bd 27 7d 2d bc
       0.048836034 -0.01779458 -0.052782144 -0.010588921
000080 e1 99 64 38 40 1e 3a bd 52 38 6d bd 9d ec db 3b
       5.4502747e-05 -0.045439005 -0.05791504 0.006711556
000090 2f 7a 56 3d 05 24 61 bd d7 a5 cf 3c 45 ee 00 bc
       0.052362617 -0.05496599 0.025347633 -0.007869308
0000a0 f5 7b 06 3d ea 08 1b 3c 18 bf fa 3b 77 c9 3d bb
       0.03283306 0.0094625745 0.0076521747 -0.0028959194
0000b0 bf 29 13 bd b9 3f 9a 3c 7d 69 86 3d 62 2c e3 bc
       -0.035928484 0.018829213 0.06563089 -0.027731124
0000c0 3a ef 7e 3c 67 5e 2f bd 13 e3 1a 3a cb 43 26 bd
       0.015559966 -0.04281464 0.00059084705 -0.040591996
0000d0 2e 00 4f bd 78 ac a0 ba 94 d7 3c bc c6 0c 4e bd
       -0.05053728 -0.0012258431 -0.011526007 -0.05030515
0000e0 3f c8 9a 3c 29 f6 47 3c 80 05 f2 bb 1e d3 fb ba
       0.018894313 0.012204685 -0.0073859096 -0.0019212698
0000f0 37 d0 47 3c e4 3a c7 bc 32 bc 4c 3d d7 af 77 3c
       0.012195638 -0.024320073 0.049984165 0.015117607

lstm.weight_ih_l0 f4 [128, 64]
000000 30 fc 20 be 30 a1 8a 3d cf dc 1e be c1 2e a2 bc
       -0.15721202 0.06769025 -0.1551392 -0.019797685
000010 44 dc c7 3d ef b5 8f bd 9b e1 25 bd 8e c4 ce bb
       0.09758809 -0.07017123 -0.040498357 -0.0063100522
000020 d9 67 1e 3e 43 c4 1b bc db 39 e8 3d f8 4b 0f 3e
       0.15469302 -0.009507242 0.1133916 0.13993824
000030 96 ec b0 bd f0 f1 0f bc 8c 04 19 3e ed 45 9f 3d
       -0.08638875 -0.00878571 0.14943141 0.07777009
000040 c1 2f 0a be fb 70 2f bb cb ad c4 3c 3f 6b d2 3d
       -0.13494779 -0.0026770222 0.024008652 0.10274362
000050 b2 6e 22 3e 05 96 56 bb 92 39 e1 3d 72 50 2b 3e
       0.1586254 -0.0032743227 0.10997309 0.16729906
000060 f8 dd 1c 3e 74 25 06 3e 72 e9 8b 3d 80 51 dc 3d
       0.1531905 0.13100225 0.068316355 0.107577324
000070 bd 6c d4 bc 7f 1f b1 bd 24 cc d9 bd 41 40 e8 3d
       -0.025930757 -0.086485855 -0.1063464 0.113403805
000080 b8 2d 43 3d e8 dc 21 be 44 b9 90 bc 26 82 32 3d
       0.047651023 -0.15806925 -0.017666467 0.04358115
000090 b6 d4 c3 3d 6b 5a 35 bd f7 1e cc bd 38 00 00 be
       0.09562056 -0.044275682 -0.099668436 -0.12500083
0000a0 55 ce a7 bd bc c4 fc 3d 13 d8 c7 3d 55 e5 9d 3d
       -0.081936516 0.123422116 0.0975801 0.07709757
0000b0 31 a9 3f bd cd 73 27 be fa d6 15 3c 97 0b ad bd
       -0.046792213 -0.16352768 0.009145493 -0.08449476
0000c0 40 34 cd bd e0 c5 1c 3e a3 97 0d 3e 47 1c 8a 3c
       -0.100197315 0.15309858 0.13827376 0.016859187
0000d0 90 21 16 be 9b a5 84 3d 89 26 e5 3d d5 96 18 be
       -0.1466124 0.06476899 0.111889906 -0.14901288
0000e0 ab a4 5a 3d 57 0f cd bd 68 33 7f 3d 71 a9 6d 3d
       0.053379696 -0.100126915 0.062304884 0.05802292
0000f0 41 b5 90 bd 25 1e 30 3e fb fe b2 bd a3 63 88 3d
       -0.070658214 0.17198999 -0.0874004 0.06659629
000100 50 1f 4f 3e 1c 22 42 3d 24 06 b7 3b 45 e4 93 bc
       0.20226789 0.04739581 0.005585449 -0.018053183
000110 2c 68 d8 bd 4c 44 82 3d dd 52 06 3e af 77 d2 bd
       -0.10566744 0.06360683 0.13117547 -0.10276734
000120 99 d5 1b bd 2d 85 f0 bc 5a 33 17 3e f7 f4 04 be
       -0.0380455 -0.029360378 0.14765683 -0.12984072
000130 18 65 cf bd e3 5e 68 bd 18 8c 19 bc fb d3 8c bd
       -0.10126704 -0.056731116 -0.00937178 -0.068763696
000140 74 be e4 bc d0 b9 0c 3d 8b dd 1b be d9 f7 b0 bd
       -0.027922846 0.034356892 -0.1522123 -0.08641023
000150 7b b4 e4 3c c2 3e e8 bc 6c 6e bf bd 68 98 30 3e
       0.027918091 -0.028350238 -0.09347233 0.17245638
000160 fa 74 d7 bd 7b 16 2f bc 36 a4 bf 3d 3c 78 ca 3c
       -0.105203584 -0.010686512 0.093574926 0.024715535
000170 88 eb 0a 3e 21 b0 7e 3d d9 cd b0 3b cd 04 09 3e
       0.1356641 0.06217969 0.0053956327 0.13380738
000180 07 45 8a 3d cf fd a6 bd 0e 81 26 3e b6 6d a6 bd
       0.06751447 -0.08153879 0.16260168 -0.081263945
000190 91 c1 d4 3d 46 44 9a bd 3c b3 94 bd 53 71 15 be
       0.10388482 -0.075325534 -0.07260749 -0.14594011
0001a0 89 c6 de bc 5a 71 2f bd b7 ec 11 3e 04 15 eb 3d
       -0.027194278 -0.04283271 0.14250456 0.11478618
0001b0 5c c0 de 3c 02 12 e3 3d a2 54 d1 3c 04 a1 0f be
       0.027191333 0.11087419 0.025553051 -0.14026266
0001c0 b5 01 67 3d bc 14 00 be a9 01 a6 3d f2 74 a0 3d
       0.056398112 -0.1250791 0.081057854 0.078348055
0001d0 3b 27 65 bd eb 58 c3 bd b7 33 41 bd 97 9f 23 be
       -0.055945616 -0.09538444 -0.04716846 -0.15978847
0001e0 e6 c1 e2 bc f1 f3 1f 3e ec 99 67 bc d6 a2 b7 bd
       -0.027680349 0.156204 -0.014135819 -0.08966605
0001f0 e7 47 73 3d 9d a6 c5 bd 36 9d ea bd 81 77 ee 3d
       0.059394743 -0.096509196 -0.11455767 0.11643887
000200 b0 c0 03 3d fe af 17 be bb 2e 2f 3d 6d 97 68 bd
       0.032166183 -0.1481323 0.042769175 -0.056785036
000210 1c 04 b3 3c 2f a9 66 3d 10 4d ad 3d a6 76 09 be
       0.021852545 0.05631369 0.08461964 -0.13424167
000220 e6 dd 8f bd 99 6b 56 3a 7e ef c4 bc ce 53 53 be
       -0.07024746 0.00081794854 -0.02403998 -0.20637438
000230 e1 20 2e 3e d1 82 18 3e a1 da 24 3e 4e 09 d6 3d
       0.1700473 0.14893652 0.16099025 0.104509935
000240 98 2c 8f bc 50 e1 26 3e fa 02 5f bd 98 f9 85 3c
       -0.017477319 0.16296887 -0.054446198 0.016354367
000250 7b 40 37 3d 98 63 1a bd 81 a7 10 3c 46 b7 f4 bc
       0.044739228 -0.037692636 0.008828999 -0.029872548
000260 8c 7a 4c bc 1c b2 a4 bb 66 92 a9 bd b9 2e 59 bd
       -0.012480389 -0.005026115 -0.082798764 -0.053023074
000270 6b a1 3c 3e c8 e1 24 3c dd 3a 95 3d 05 30 45 bd
       0.18420951 0.010063596 0.07286618 -0.048141498
000280 bb 64 0b be fb c4 97 3d bf 01 31 bc 36 f5 bd bc
       -0.13612644 0.07410618 -0.010803639 -0.023188215
000290 42 a4 26 bd 5d e4 96 bd 25 3a 9f bd c9 39 07 bc
       -0.040683992 -0.073677756 -0.07774762 -0.008253523
0002a0 86 cc 28 be f8 00 fc 3d ed e3 4b bc 85 dc 68 3d
       -0.1648427 0.12304872 -0.012444478 0.05685093
0002b0 f1 81 8e bd ab 2a 42 3d 1d 15 af 3d a4 1a 7f 3c
       -0.06958378 0.047403973 0.08548949 0.015570316
0002c0 4e 4e 16 3d 6e 01 8d bd c7 ea 3a 3e fc fd d8 3d
       0.03669577 -0.06885038 0.18253623 0.10595319
0002d0 27 5b 77 3c 38 06 82 be 29 e0 a9 bd 78 03 06 3e
       0.015097416 -0.2539537 -0.08294708 0.1308726
0002e0 e5 63 d0 3c 1a 0f 6d 3d 77 bd 52 bd b5 04 b3 bd
       0.025438258 0.05787573 -0.05145022 -0.08741132
0002f0 b9 c9 34 be cf 85 98 3d 39 0b be bd 87 6a fa 3d
       -0.17655076 0.07447397 -0.09279484 0.1222735
000300 60 bf 85 bc 1c 9f 03 be 2a 13 1a be 5b 2d bb bd
       -0.016326606 -0.12853664 -0.15046373 -0.0913951
000310 3f c7 73 3d 45 18 5f 3d 29 7b 06 be 12 f4 2c be
       0.059516188 0.054466505 -0.1313292 -0.1688998
000320 76 12 43 3e 54 03 23 be 73 34 92 3c 14 55 79 3d
       0.19050011 -0.15919238 0.017847275 0.060872152
000330 73 6f 2f be 23 b3 ce 3d 45 4f 86 bd e9 52 31 bc
       -0.17132358 0.10092761 -0.06558088 -0.01082299
000340 9d 4e a3 be ca 36 f8 bb e3 5e 18 3e c4 50 b8 bb
       -0.31895915 -0.0075748907 0.14879946 -0.0056248624
000350 a8 88 1e be 9b 4c c3 3b 79 d2 c7 3d 0b 9d a4 bd
       -0.15481818 0.00596006 0.09756941 -0.08037766
000360 8f eb 64 39 81 b3 03 3e 2d 11 f3 3d 20 15 0c bd
       0.00021831527 0.12861444 0.118685104 -0.034199834
000370 f9 1a 1e 3d db 2b 9f bd ef c9 1a be 71 a4 7b bd
       0.038599942 -0.07772037 -0.15116094 -0.06143612
000380 35 12 a7 3d ea bb b5 bc db 39 86 3d 14 16 00 be
       0.081577696 -0.022184331 0.06554004 -0.12508422
000390 b7 b0 12 3e 29 80 98 3c 9a 74 07 3d cc ee 2b be
       0.14325224 0.018615799 0.033070184 -0.16790313
0003a0 13 31 be 3d b8 9e 36 bc ec 97 fa bd cb 49 61 bd
       0.09286704 -0.01114624 -0.12236008 -0.055002015
0003b0 28 f4 bb bd 19 1f 65 3b f8 72 3e bd 0c 13 d8 bd
       -0.091774285 0.0034961163 -0.04649636 -0.10550508
0003c0 b1 ed c1 bd 7e f0 bd bd 7f 05 47 bd d8 95 0a 3c
       -0.09469164 -0.09274386 -0.048589226 0.008458577
0003d0 e9 d5 02 3e 78 70 6d bb d4 d9 ec 3d 96 cc 41 bd
       0.12776913 -0.0036230367 0.11564985 -0.04731425
0003e0 46 d6 98 bd 6a c9 5f 3d c3 ed 95 bd da 34 9c 3d
       -0.074627444 0.054635443 -0.0732074 0.07627268
0003f0 72 65 21 bd 55 ff e6 3d 08 34 93 bc d9 f1 91 3b
       -0.039403386 0.112791695 -0.017969146 0.0044538793

lstm.weight_hh_l0 f4 [128, 32]
000000 c5 80 28 be 96 68 2a 3d 51 d5 13 bd 21 97 05 be
       -0.16455372 0.041603647 -0.036092106 -0.13045932
000010 71 f6 0d 3e 56 44 0f be 13 00 b0 bb e1 10 d5 bc
       0.13863541 -0.13990912 -0.0053711026 -0.026009025
000020 f7 0d 88 3d ef c6 09 be 1e 3f d6 bd af 7e 2e 3e
       0.066432886 -0.13454793 -0.104612574 0.17040513
000030 c6 25 ac 3d c5 1a c2 3d 29 e9 15 be 69 c1 14 bc
       0.08405642 0.09477762 -0.14639725 -0.009079316
000040 e0 33 b5 bd 26 0f b5 3d 42 7e 15 be 50 01 10 3d
       -0.08847785 0.0884078 -0.14598945 0.0351575
000050 ec 20 ac bd ef 5a 6c bd 46 2d 98 bd f4 56 ce 3d
       -0.08404717 -0.05770391 -0.0743051 0.10075179
000060 51 a2 e8 3c 61 4d 1e bc f5 01 de bd b7 79 93 3d
       0.028397711 -0.009662003 -0.10840217 0.0720095
000070 41 52 a4 bd 2a 97 56 bd e2 79 c3 bd d4 c1 40 3c
       -0.08023501 -0.052390255 -0.09544732 0.011764962
000080 6a 61 e9 bd bf c0 ac bb ee 2b 6b bd 51 e5 e1 bd
       -0.113955334 -0.0052720006 -0.05741494 -0.11030067
000090 9d 9c a6 bc d3 11 89 3d 39 05 07 be 90 02 2a 3c
       -0.02033835 0.06692853 -0.13185586 0.0103765875
0000a0 e1 fe ae 3c 31 2e a8 bd 0a ed d1 bd c1 13 1a 3e
       0.02136177 -0.08211935 -0.1025029 0.15046598
0000b0 6a c8 c7 bc e3 f9 a5 3c 66 80 10 3e c7 cd ec bd
       -0.024387557 0.020260757 0.1411148 -0.115626864
0000c0 56 be c1 bd ed 9e 28 be da b5 1f be ee 00 20 be
       -0.09460132 -0.16466875 -0.15596715 -0.15625355
0000d0 f1 8c 9a bd 25 bb 68 3c 1c 8d 19 bd 59 5b fa bd
       -0.07546414 0.014204775 -0.037488088 -0.122244544
0000e0 68 7c 46 be 42 ad 9f bd 17 a3 9e 3c 01 65 1f be
       -0.19383395 -0.07796718 0.019364877 -0.15565874
0000f0 41 f5 14 be 43 40 ad bd 79 60 ff 3c ff 7f 6a 3c
       -0.14546682 -0.084595226 0.031173931 0.014312743
000100 0a 6e da bd 8a 99 04 be c7 61 a9 3d f2 91 c5 3d
       -0.106655195 -0.12949196 0.08270603 0.096469775
000110 ea 49 d4 3d 35 a8 b5 3d c5 b6 29 3b 96 a6 32 be
       0.103656605 0.088699736 0.0025896293 -0.1744636
000120 bd d6 b6 bc eb 5b bb 3c e2 7f 19 be cd 2f 69 3c
       -0.022319192 0.022870978 -0.1499019 0.014232588
000130 39 d9 da bd ab 8e 31 3d d9 77 80 bd 71 57 0b 3e
       -0.10685963 0.04334895 -0.06272859 0.13607575
000140 19 36 bf 3d fb de d8 3c cf 59 9d be 94 40 25 bc
       0.0933649 0.026473513 -0.3073258 -0.010086197
000150 85 8b 91 3d 33 ad 6f 3e 72 6f 15 3d 42 66 a4 bd
       0.07106689 0.23405914 0.036483236 -0.08027317
000160 6b a1 a9 be 41 a5 ff 3d 2f 06 a4 bd 5a 41 78 be
       -0.33130965 0.124826916 -0.08008992 -0.2424368
000170 d1 f0 ef 3d f6 07 41 3e 63 df 0f bd b8 9e 85 3e
       0.11715854 0.18850693 -0.035125148 0.26097655
000180 1b 5a 52 be 0a b5 de bd 05 cf 46 be da e3 a4 bd
       -0.20542185 -0.10874374 -0.19414909 -0.08051272
000190 d6 66 a5 3c 12 f6 7c bd 65 cc b0 3d a9 ab b6 bc
       0.020190638 -0.06175811 0.08632735 -0.02229865
0001a0 64 02 48 3c 3f ae 2b 3d 7c 73 af 3e a1 0e 6e be
       0.012207601 0.04191422 0.34267795 -0.23247768
0001b0 99 a4 54 bc e2 ef 1a be 3a eb 4b bc 5e a4 a4 3d
       -0.012978696 -0.1513057 -0.012446219 0.08039163
0001c0 37 16 37 bd 61 3f 28 bd 42 73 02 3e 68 62 2b 3d
       -0.04469892 -0.041076068 0.1273928 0.041841894
0001d0 dc 4e 9e 3d 84 f8 ad be 72 82 03 be 30 d9 0e be
       0.07729885 -0.33978665 -0.1284273 -0.13950038
0001e0 b9 9c 7e 3d a3 ab 85 bd 49 c1 39 be 1a 0e 86 3e
       0.06216118 -0.06526878 -0.18140139 0.26182634
0001f0 16 0c ab be 62 2c df bd ae 4e be 3e 72 c1 29 be
       -0.33407658 -0.10897137 0.37169403 -0.165777
000200 11 0c 20 be 55 6d 92 3c 09 75 8f be 9e 56 17 3e
       -0.15629603 0.0178744 -0.28018978 0.14779136
000210 2c 60 a1 bd d5 39 17 be 92 01 45 3e 3b f9 4f 3d
       -0.078796715 -0.14768155 0.1923888 0.050774794
000220 d7 e6 fd 3d 78 81 19 be 19 5c a3 3e e5 20 7e be
       0.12397545 -0.14990795 0.31906202 -0.24817236
000230 d4 0e 60 bd 33 b0 e7 3d b3 0b 95 bd ec 1d 34 3d
       -0.05470164 0.11312904 -0.07277622 0.04397385
000240 3d b3 be bc 71 9a ea bd bc 42 8f 3e ca 1a 25 3e
       -0.023278827 -0.114552386 0.27980602 0.161235
000250 cb d3 93 3d 3f cd c1 bd 91 14 2a be e7 20 23 be
       0.07218131 -0.09462976 -0.16609408 -0.1593052
000260 14 c5 8a 3e 6f ae 19 3d 87 45 05 3e 6e 53 b2 3e
       0.27103484 0.03751987 0.13014804 0.34829277
000270 fc 4c 9c be ff 4f c8 3c de d4 2a 3e 26 a1 82 be
       -0.30527484 0.024452208 0.16682765 -0.25513572
000280 56 b6 59 3c cf da 18 3d 1e ab 1f bc 03 a9 aa bd
       0.013288101 0.037318047 -0.009745387 -0.08333018
000290 e7 b8 fa bd 6a 32 b8 bd 1d 31 5e 3e 16 03 16 be
       -0.122422986 -0.08993991 0.21698423 -0.14649615
0002a0 7e db 11 bd 7c 39 99 3d 1c ac 84 3d 7a 3d a5 bd
       -0.035609715 0.074816674 0.0647814 -0.08068366
0002b0 03 bf e4 3d 8f 9f ef bd 61 bf 52 be d5 ac 0f 3e
       0.11169245 -0.11700355 -0.20580818 0.14030774
0002c0 b9 3e 67 bc d3 06 8a 3d 9d 0d f9 3b 94 bc 71 3d
       -0.014114075 0.06739583 0.0076005 0.059017733
0002d0 5c 03 20 3e 47 fa 86 3d a4 76 6a 3d 44 0e a1 3c
       0.15626281 0.06590705 0.05724205 0.019660123
0002e0 5c 4f 2e 3d 97 b9 43 3e 56 7a c5 3d c0 7f b8 bc
       0.04255615 0.19113766 0.09642474 -0.022521853
0002f0 e8 40 90 bd b0 39 b0 bd 11 54 74 bc 99 a5 c9 3c
       -0.0704363 -0.08604753 -0.014912621 0.024615096
000300 dd 83 08 3d e0 ce 0d 3e 97 7d 02 be bc 7c 97 3d
       0.03332888 0.13848448 -0.12743221 0.07396838
000310 82 f3 de bc 21 68 64 3d e7 9f cf 3c b3 1d 26 be
       -0.027215723 0.055763368 0.025344802 -0.16222267
000320 6c 9c b1 3d 95 78 21 3e f4 78 a9 3d bc 40 11 be
       0.08672413 0.15768655 0.08275023 -0.1418485
000330 0e 2a 87 bd b7 de 25 be 9e c0 41 bd de 9e a5 bd
       -0.06599818 -0.1619824 -0.047302835 -0.08086942
000340 82 49 7a bd c7 7c e2 3d 46 95 b2 3e bc 72 ff bc
       -0.06110526 0.11058956 0.34879512 -0.03118264
000350 f4 c1 0f bb ac 78 83 be 5a 0d 3c 3e ec 7a 5a 3c
       -0.0021935673 -0.25678003 0.18364468 0.013334971
000360 5a da 7b 3e 83 05 81 bd 0c 52 13 bd f7 00 b1 3e
       0.24595013 -0.062998794 -0.035966918 0.3457105
000370 6a f3 14 be c4 8b 1c be 3b b1 3c 3e fa 88 59 bc
       -0.1454598 -0.15287691 0.18426983 -0.013277287
000380 54 90 27 be fc d8 e6 3d 3c 84 04 3e db 66 0d 3e
       -0.1636365 0.11271855 0.12941068 0.13808767
000390 7f 83 13 bd 26 83 39 bd 8a fd 49 3d 35 ce 2e 3e
       -0.036014076 -0.04529109 0.04931406 0.17070849
0003a0 41 02 a2 3d 20 1d 85 3d 12 b0 e9 bd df 75 e1 3c
       0.07910586 0.06499696 -0.11410536 0.027522026
0003b0 8d fa 19 3e a6 07 6a bd 0a bc 4e 3d 66 76 52 3d
       0.15036984 -0.0571362 0.050472297 0.051382445
0003c0 9c 20 e8 bd fd ce 9a bd 72 17 31 3e 2d c5 21 3e
       -0.11334345 -0.07559011 0.172941 0.15797873
0003d0 36 f6 2c 3e d3 2a 2c 3e dd 22 28 3e 84 79 4f bd
       0.16890797 0.16813211 0.1641955 -0.050652996
0003e0 d7 14 85 bd c5 8a 11 3e 59 c0 41 3d 26 a2 02 3e
       -0.064981155 0.14213093 0.047302578 0.12757167
0003f0 9f a3 b3 bd b4 3b f7 3d 55 c8 1f be 12 f0 b2 bd
       -0.087714426 0.12071934 -0.15603764 -0.08737196

lstm.bias_ih_l0 f4 [128]
000000 c5 e3 f0 bd ae 31 15 3e c2 61 bb bb c9 0f 0f 3e
       -0.117621936 0.14569733 -0.0057184407 0.13970865
000010 72 7c bd 3d e7 70 4a 3d 30 7e a4 bd fa 15 31 3e
       0.09252252 0.04942408 -0.08031881 0.1729354
000020 05 d5 03 bd 59 d5 1b 3c ed 98 08 3e fb 7c 5f bd
       -0.032185573 0.009511315 0.13339587 -0.05456255
000030 c8 da dc 3d a6 5a 21 3e e1 1e f3 3d b6 c4 fb bd
       0.10783917 0.15757236 0.11871124 -0.12293379
000040 41 6f 86 3d a9 80 93 bc 05 6b 1a 3d fa a1 2d 3e
       0.06564189 -0.018005686 0.037699718 0.1695632
000050 a6 f7 ee 3d 3f ae 52 bd dd 41 20 be fd 2c 1d bc
       0.11668329 -0.051435705 -0.15650125 -0.009593246
000060 ad fe 0e be 74 d1 0a 3e 2f 27 f6 bd 83 ec cd bb
       -0.13964339 0.13556463 -0.120191924 -0.006284298
000070 cf da 32 be fc 95 a7 3d 12 8e f6 3c d3 01 da bd
       -0.17466281 0.08182904 0.030097041 -0.10644879
000080 c9 f3 82 bd f7 fc ad 3d f3 c0 4b 3e 47 83 34 3e
       -0.063941546 0.08495515 0.19897823 0.17628203
000090 e6 ad 3f 3d f5 16 02 3e 6d 98 e6 3d 8c 11 ce 3d
       0.0467967 0.1270407 0.11259542 0.100619406
0000a0 69 73 f3 3d 5d 9d 13 be 02 de 88 3d 06 63 61 bc
       0.11887247 -0.14415498 0.0668297 -0.013756519
0000b0 35 bf 16 3d 51 8f 87 bd e6 36 1d 3e 7b 9b d7 3d
       0.036803443 -0.06619132 0.15352973 0.105277024
0000c0 ee 19 26 bc 4e 38 d3 bd 1d 17 28 3d 2c 9c 32 be
       -0.010138018 -0.10313474 0.041037668 -0.17442387
0000d0 88 42 ae 3d c2 67 fe 3d 19 dd be bc a3 5d 4f 3d
       0.085087836 0.12422134 -0.023298787 0.05062641
0000e0 bb 95 6c bd 53 e9 85 bb 66 90 35 3e ce da 59 3d
       -0.05775998 -0.0040866523 0.17730865 0.053187184
0000f0 cd 7f dc 3d 94 e7 03 be b8 11 c9 39 86 51 f5 3d
       0.107665636 -0.12881309 0.0003835091 0.1197844
000100 c3 90 27 bd 00 75 be 3d eb 60 0b 3d 40 5f ad ba
       -0.04090954 0.0929966 0.034027975 -0.0013227239
000110 68 fd d3 bd 33 11 b3 bd 5b 70 c9 3d 85 83 42 3d
       -0.10351068 -0.08743515 0.09835883 0.047488708
000120 53 a1 fa 3d 49 8a 07 3e 2d 0b 1b be 4d 28 cb 3d
       0.122378014 0.13236345 -0.15140982 0.09919796
000130 01 fe 9f 3b 34 7b 4b bc 01 46 0b 3e 43 eb 34 be
       0.0048825745 -0.012419511 0.13600923 -0.1766787
000140 87 0c 91 bd e5 3c 31 3e 3d 69 02 3e 70 b4 a1 bd
       -0.070824675 0.17308386 0.12735458 -0.07895744
000150 9b 10 90 bd 90 b6 1c 3d 0f 46 8e 3d 15 16 17 3e
       -0.07034417 0.038260043 0.06946956 0.14754517
000160 ae a0 d3 3c a2 17 1b be 90 32 d9 bd 7b 04 c6 bd
       0.025833454 -0.15145734 -0.10605347 -0.09668823
000170 5f 83 3d 3c ae 5d 27 bd 2d b9 8a 3c 6c ae 95 bd
       0.011566966 -0.040860824 0.016934002 -0.07308659
000180 2a 07 e9 bd c6 f3 b0 3d ee 96 da bc bc 37 1a 3e
       -0.113783196 0.08640246 -0.026683297 0.15060323
000190 d7 6f 51 bd 07 fb 30 3e 88 a5 2f bd 0c 80 d2 bd
       -0.05113205 0.1728326 -0.042882472 -0.10278329
0001a0 9f 73 2f bc 4d 61 92 bc 29 b0 af bd 19 9b 0a be
       -0.010708719 -0.017868662 -0.08578522 -0.13535728
0001b0 7e 73 18 bd 99 c9 98 3d 9b 49 2a 3e 13 39 e2 3d
       -0.037219517 0.07460327 0.16629641 0.11046042
0001c0 23 0c 3a bd bf 72 ad 3d e4 6d 4e 3d f5 95 88 bc
       -0.04542173 0.08469152 0.05039777 -0.016673068
0001d0 b0 f7 25 be 09 62 56 3c e7 b0 c9 3c 89 6c ed 3c
       -0.16207767 0.013084897 0.024620486 0.028982418
0001e0 98 2d 1e be ef cf 8a 3d fc 47 39 3e c7 7e 93 bd
       -0.1544708 0.067779414 0.18093866 -0.07201915
0001f0 0c 56 a9 bd 9a 53 58 3e 9a e0 a6 3d dd 20 c3 bd
       -0.08268365 0.21125641 0.08148308 -0.095277525

lstm.bias_hh_l0 f4 [128]
000000 39 aa 51 3c d9 b2 f6 bd 67 9a 5b 3d 57 e4 7a 3d
       0.012796932 -0.12045831 0.053614046 0.061252918
000010 a1 d5 c2 bd 73 1c d6 3d c9 4f 49 bd 82 65 e6 bd
       -0.09513403 0.10454645 -0.049148355 -0.1124983
000020 e1 42 a2 bd 94 e5 3d 3d f0 11 54 bd 89 7b 68 bc
       -0.079229124 0.04636152 -0.05177492 -0.014189609
000030 49 05 34 bc 7f 86 34 3e cf 76 ee bd 7f 93 81 bd
       -0.010987588 0.17629431 -0.11643755 -0.06326961
000040 96 9a ce 3d 08 ab 25 3e 9a f8 b0 3d 46 0c 25 3e
       0.10088079 0.16178524 0.08641167 0.16117963
000050 19 87 b7 3d de 09 3f 3c e1 66 e7 bd 5b f9 13 3e
       0.08961315 0.011660067 -0.112989195 0.1445059
000060 66 0d aa bd 06 4b c9 3d 99 7c 9b 3c e4 f0 d5 3d
       -0.08303337 0.09828763 0.018980311 0.10446337
000070 40 c1 cd 3d a6 46 ff bd f6 1c c7 bd a9 38 09 3e
       0.10046625 -0.12464647 -0.09722321 0.1340052
000080 86 32 9d 3c 60 0c 21 be 5e a7 75 bd 07 30 b6 bd
       0.01918913 -0.15727377 -0.059974067 -0.08895879
000090 37 30 86 bd a2 a7 27 be 8f 49 28 3e dc 0b 1e be
       -0.06552165 -0.1637254 0.1643431 -0.15434211
0000a0 08 4f 22 be 9f 44 1b 3c 60 16 4d 3d 3c de f8 3c
       -0.1585046 0.00947681 0.050070167 0.030379407
0000b0 09 79 0e 3e fd 4f be 3d c9 03 e2 bd 80 9c bf 3d
       0.13913359 0.092926 -0.11035878 0.09356022
0000c0 87 76 bc bc 27 77 3b 3d 3d 2e dc 3c e2 63 02 bb
       -0.023005737 0.04576793 0.026877517 -0.001989596
0000d0 3b 3a f0 bd 78 d8 8b 3d 14 04 bf bd 71 9d 06 3e
       -0.117298566 0.068283975 -0.0932695 0.13145997
0000e0 4d ae 31 3e a8 5f c7 3b 1f 15 e4 3d 03 8c 36 bd
       0.17351647 0.006084401 0.11136841 -0.04456712
0000f0 4d 59 dd 3d 78 cc 12 be 23 43 f4 3d 9b fd 20 bc
       0.108080484 -0.14335811 0.11926868 -0.009826089
000100 7c b5 a8 3d 86 58 a6 bd 4c e3 49 be fe 2c fc 3d
       0.082377404 -0.08122353 -0.19715613 0.12313269
000110 84 04 30 3e 38 6e 62 3d 62 32 1d 3e 48 10 22 3e
       0.17189223 0.055280894 0.15351251 0.15826523
000120 c8 85 d1 bd ad 68 35 be 8b ce 1d bd 78 ad a5 3d
       -0.10230595 -0.17715712 -0.038527053 0.08089727
000130 ee 23 11 3e f2 e5 c1 bd e3 94 12 3e fe 8d 17 bd
       0.14173862 -0.09467687 0.14314608 -0.03700065
000140 30 d9 35 3d 85 75 73 bd ef d5 c1 bd 02 0e 1a 3e
       0.04439658 -0.059438247 -0.09464633 0.15044406
000150 91 94 67 bc 14 fd e6 bd d6 a7 66 bd 51 c0 1b be
       -0.014134542 -0.112787396 -0.056312405 -0.15210082
000160 98 46 08 3e 86 f8 73 bc 97 22 36 be 9e a4 01 3e
       0.1330818 -0.014890796 -0.17786632 0.12660453
000170 4d d6 1f 3d 82 96 d3 3d e3 2d c3 bd 4f be c6 3d
       0.039022733 0.103314415 -0.095302366 0.09704267
000180 47 c2 05 3d e9 e4 81 bc 97 86 24 be 4c 45 59 bc
       0.03265598 -0.015856223 -0.16066967 -0.013261151
000190 a5 9e 0b 3e 32 aa 44 bd 74 ef 04 be a6 0d 62 bc
       0.13634737 -0.048013873 -0.12981969 -0.013797199
0001a0 68 99 f7 3c 61 3c 08 3e 5a 8a 71 bd 23 ea 2f bc
       0.030224517 0.13304283 -0.058969833 -0.010736975
0001b0 95 a8 5c 3d 80 d1 21 3e d8 22 f8 bd 7b 20 b0 bc
       0.05387171 0.15802574 -0.12116021 -0.021499863
0001c0 b6 8e 05 3d 4a f3 91 3d e4 3d 1a be 27 d9 b3 3d
       0.032606803 0.07126482 -0.15062672 0.08781653
0001d0 93 c8 90 bd 58 6e 24 be 8b f7 0f be a3 e6 25 3e
       -0.070695065 -0.16057718 -0.14059274 0.16201262
0001e0 2a 79 81 3d 78 2b 47 3e 0b 9a 2d bd f6 e7 26 bd
       0.06321938 0.19450176 -0.042383235 -0.04074856
0001f0 4f 40 40 bd 92 1f 21 bd f1 61 39 3e b9 85 03 3e
       -0.04693633 -0.03933675 0.18103768 0.1284398

Linear_1.weight f4 [4, 32]
000000 13 ba b5 3e 84 c7 3f 3e 63 29 82 3e b7 b3 19 be
       0.35493526 0.18728453 0.254222 -0.15009962
000010 c1 ee 4b be b1 5f f5 bd fd 93 86 bd 14 1a cb 3d
       -0.19915296 -0.11981142 -0.06571195 0.099170834
000020 23 26 15 be 4d f2 82 3e b1 3c b3 3e a9 b3 69 be
       -0.14565329 0.25575486 0.3500724 -0.22822441
000030 c0 7c 5d 3e 22 00 51 be 02 b1 76 be d3 bf 18 be
       0.2162962 -0.20410207 -0.2409096 -0.14916925
000040 dd f4 43 3e f7 b5 9b be a1 77 82 3e f2 f0 17 3c
       0.19136377 -0.30412266 0.25481895 0.009273754
000050 f6 63 be bd e7 b0 4c 3e e2 65 84 3e 9e fa b2 be
       -0.0929641 0.19989358 0.2585898 -0.3495683
000060 6f 7c c6 3c 36 cd ef bd bc eb 09 be c3 29 b3 be
       0.024229256 -0.11709063 -0.13468832 -0.349928
000070 3d 5b 49 3d 3a 75 92 be 2b 95 cc bd ce f0 5d be
       0.049159277 -0.28605062 -0.09989389 -0.21673891
000080 e1 df 79 3e 0a c9 2f 3e 31 c2 4d be dc 3e f0 bd
       0.2440181 0.17166534 -0.2009361 -0.117307395
000090 b8 13 82 be 1f 43 7b 3e ae 6e 74 3e 4d 97 16 3e
       -0.2540567 0.24537323 0.23870346 0.14706154
0000a0 75 e2 bc bd 6e f2 c3 bd ef 72 88 be ca b8 47 3e
       -0.09222881 -0.09567724 -0.26650187 0.19504085
0000b0 f3 96 80 3e d4 ee f8 3d af e3 92 be 9d 6e c5 bb
       0.25115165 0.12154928 -0.28689334 -0.006025149
0000c0 df a7 16 be 08 75 89 3e f1 66 97 be 75 d7 2a 3e
       -0.14712475 0.268471 -0.29570726 0.16683753
0000d0 b3 cc 0a 3e 27 0d 71 be 97 3e 5c 3e 47 ff 83 3e
       0.13554649 -0.23540173 0.21508251 0.257807
0000e0 7d 1e e1 3c 7c 89 ac 3e d8 22 97 3e 29 2c 8e 3e
       0.027480358 0.33698642 0.2951877 0.27768067
0000f0 82 aa 88 be 11 99 cd be fa 7a 8a 3e 52 ec 92 be
       -0.26692587 -0.40155843 0.2704695 -0.28695923
000100 cf 2d 9b be 5e 7c af be b8 84 37 be 81 ca ac 3e
       -0.30308387 -0.34274572 -0.17921722 0.33748248
000110 53 f0 8e 3e 57 13 b0 ba b6 c3 aa 3e d9 85 d8 3d
       0.27917728 -0.0013433498 0.3335244 0.105724044
000120 97 4e af 3e a3 2e cc 3c 87 9b 90 3e 6f df 94 be
       0.34239647 0.024924582 0.28243658 -0.29076716
000130 ff 6d 12 be 0b ef a4 3d 8f a7 8a 3e c9 b8 dc bd
       -0.14299773 0.08053406 0.27080962 -0.107774325
000140 1a 75 5e be d0 00 1c bd 8d 39 79 3e 83 0c b3 bd
       -0.21724358 -0.038086712 0.2433836 -0.08742621
000150 c0 8b b6 bd 6c 16 61 be 5a 71 8a be d0 53 d9 bd
       -0.08913374 -0.2198121 -0.27039605 -0.10611689
000160 86 05 cc 3d cc a4 40 be 10 02 72 be b0 73 d3 3d
       0.09961991 -0.18812865 -0.236336 0.103248
000170 b9 74 6f be f0 5c 85 3e 36 55 58 3e 78 b4 b1 be
       -0.2338437 0.26047468 0.21126255 -0.34708
000180 36 5a 5f be f5 44 32 be 30 a8 8a 3e 3b 46 a2 3d
       -0.21811756 -0.17409118 0.27081442 0.07923552
000190 84 0b db bd ae b0 2a be 36 fb 64 be c7 c9 81 bd
       -0.10695556 -0.1666896 -0.22361454 -0.06337314
0001a0 bf 86 2a 3d fc 73 85 bd 23 b1 9b be 9a fc 64 3e
       0.04163241 -0.06516263 -0.30408582 0.22361985
0001b0 de b0 82 be 27 43 0a be fd 60 5f 3e 61 f9 27 3e
       -0.25525564 -0.13502179 0.21814342 0.16403724
0001c0 69 15 61 bd a6 e2 81 3e 9c 04 9f be 97 fb d6 bd
       -0.05495206 0.25368232 -0.31058204 -0.10497206
0001d0 02 6c 2d 3b 91 bf 7e 3e 19 a8 98 be 69 98 8f 3e
       0.0026462083 0.24877764 -0.29815748 0.28045967
0001e0 2b 28 9f be 3a 64 97 bd 40 67 d3 bd 9b ba df be
       -0.31085333 -0.073921636 -0.10322428 -0.43697056
0001f0 85 9a a5 3e 23 f4 03 3e 5b 3d 95 be 19 15 1e 3e
       0.32344452 0.128861 -0.29148373 0.15437736

Linear_1.bias f4 [4]
000000 bf b4 61 3c 3c 7a e1 3d a1 f8 b8 bb 30 74 ad bd
       0.013776003 0.110096425 -0.0056448733 -0.08469427
